chatbot_data.pth (torch, 4823 bytes, 6 tensors)

l1.weight f4 [8, 50]
0	0x3f15ebed	0.5856312
1	0xbe23d98e	-0.1600096
2	0x3e9fc685	0.31206146
3	0xbe96aec3	-0.29430208
4	0x3f502373	0.8130409
5	0x3ee7fabf	0.45308492
6	0x3e0fd81c	0.14047283
7	0x3ddcf127	0.10788184
8	0xbf3d2eda	-0.73899615
9	0x3f6d9155	0.92799884
10	0x3e4af687	0.19820605
11	0xbeace179	-0.33765772
12	0x3f0c68b2	0.5484725
13	0x3f3e7144	0.7439158
14	0x3edd773f	0.4325504
15	0xbe942efa	-0.2894209
16	0xbe6bf298	-0.23041761
17	0x3f55236f	0.8325719
18	0xbe9a9779	-0.3019369
19	0xbf116af0	-0.568038
20	0x3f0185b9	0.5059467
21	0xbf0d77b3	-0.5526077
22	0xbf1168f9	-0.568008
23	0xbf1263ad	-0.57183343
24	0x3f135d60	0.57564354
25	0xbf22330b	-0.63359135
26	0xbee2e7f1	-0.44317582
27	0xbf29239b	-0.66069955
28	0x3edda7cc	0.4329208
29	0x3edf26af	0.435842
30	0x3e3ace3f	0.18242739
31	0xbe1ae040	-0.15124607
32	0x3f2cdff5	0.6752923
33	0xbcc709f8	-0.024296746
34	0x3ede3b16	0.43404454
35	0x3e863789	0.26214245
36	0xbf14948b	-0.5803916
37	0x3f0389d4	0.51382184
38	0x3ec7cd6d	0.39023915
39	0xbe04a736	-0.12954411
40	0x3e8f684f	0.2800927
41	0x3b1fa563	0.0024360053
42	0x3f8100c5	1.007836
43	0x3f29115b	0.6604211
44	0xbe5840bb	-0.21118443
45	0x3f5f2611	0.8716746
46	0x3eac23e6	0.33621138
47	0x3d04ac5e	0.032390945
48	0x3e9e76f0	0.30950117
49	0xbec17272	-0.37782627
50	0xbe7b133c	-0.24519056
51	0xbe377716	-0.17916521
52	0x3dbd9a8d	0.09257994
53	0x3e9cb9ac	0.30610406
54	0x3e1f1770	0.15536284
55	0xbeda7a03	-0.42671213
56	0x3d3ad70b	0.045615237
57	0x3dcc5bb7	0.09978431
58	0x3f4e152d	0.8050106
59	0xbf126b7c	-0.5719526
60	0x3deea85f	0.11653208
61	0x3ef4e3cf	0.47830054
62	0xbe5a48ab	-0.21316783
63	0xbe59e595	-0.21278985
64	0xbd855596	-0.06510465
65	0xbe4f6f27	-0.20257245
66	0x3edf3249	0.43593052
67	0x3ec0fd4a	0.37693244
68	0x3eeebb76	0.46627396
69	0x3f073ef8	0.5283046
70	0xbd57ff40	-0.05273366
71	0x3f288355	0.65825397
72	0x3f190a3f	0.5978126
73	0x3f2c743c	0.6736486
74	0xbeeb4f42	-0.45958906
75	0x3f22fd7a	0.63668025
76	0xbe8699a1	-0.26289085
77	0xbe7c6831	-0.24649121
78	0x3e6196c4	0.22030169
79	0x3dd03176	0.10165684
80	0x3cdb87de	0.026798185
81	0xbe309309	-0.1724359
82	0xbedc93a9	-0.43081406
83	0x3daee57d	0.08539865
84	0xbe915439	-0.2838457
85	0x3cc8aa28	0.0244952
86	0x3f55ee31	0.83566576
87	0x3e189273	0.14899616
88	0xbe085bcd	-0.13316269
89	0x3d0466bc	0.032324538
90	0xbc405e27	-0.011741198
91	0xbe1df759	-0.15426387
92	0xbf0cad96	-0.5495237
93	0xbdbcb0bd	-0.09213398
94	0xbe81020e	-0.2519688
95	0xbe913d05	-0.28366867
96	0xbe1758c1	-0.1477995
97	0xbe0509a5	-0.1299196
98	0x3e82be11	0.25535634
99	0xbe98f53c	-0.298746
100	0x3eea72f2	0.4579082
101	0x3ef32ebb	0.4749659
102	0xbebb2443	-0.36551103
103	0x3eca38b5	0.3949639
104	0xbf1f64ee	-0.6226338
105	0xbeb3fa79	-0.35152033
106	0xbeb32e66	-0.34996337
107	0xbf21d641	-0.6321755
108	0xbf154042	-0.58301175
109	0xbea37e86	-0.31932467
110	0xbde587a5	-0.11207513
111	0x3ed01937	0.40644237
112	0xbe23cbd1	-0.15995719
113	0xbe5fe251	-0.21863677
114	0xbe9fd6e4	-0.31218636
115	0x3ef85aa2	0.48506647
116	0x3e91a49d	0.28445902
117	0xbef4b5d9	-0.4779499
118	0xbeed201b	-0.46313557
119	0x3f119f8d	0.5688408
120	0x3efeae08	0.4974215
121	0x3ed618a2	0.41815668
122	0x3f09d3fd	0.53839093
123	0x3e42d0ab	0.19024913
124	0xbe555dd9	-0.20836581
125	0xbec86cf7	-0.39145634
126	0x3f16f8d8	0.58973455
127	0x3eeb7f72	0.4599567
128	0xbe00b3c8	-0.12568581
129	0x3e9012d9	0.2813938
130	0xbe4bd90f	-0.1990702
131	0x3f019472	0.50617135
132	0x3c2fb266	0.010723686
133	0xbf24a29b	-0.64310616
134	0xbe830f86	-0.2559778
135	0xbdbc168e	-0.091839895
136	0xbed3bfb7	-0.41357204
137	0xbe151272	-0.14557818
138	0xbddbd902	-0.1073475
139	0x3e9750c5	0.2955381
140	0xbdd1da8f	-0.10246765
141	0x3ed04f0f	0.40685317
142	0x3f277703	0.6541597
143	0x3ec6ac64	0.388034
144	0x3eb6e1d5	0.3571917
145	0xbd7b8473	-0.06140561
146	0xbd930731	-0.07179106
147	0x3dc068c4	0.093949825
148	0x3e7aac51	0.24479796
149	0x3f0a4fb5	0.54027873
150	0xbe141fb1	-0.14465214
151	0x3e8e9699	0.27849272
152	0xbe143df8	-0.14476764
153	0xbe85a6fc	-0.2610396
154	0x3f12b22e	0.5730313
155	0x3e037fe9	0.12841763
156	0xbe2b8987	-0.16751681
157	0x3df0277e	0.117262825
158	0x3e85f10b	0.26160464
159	0x3f6b547f	0.91925806
160	0xbd95b516	-0.0730993
161	0xbe3aa793	-0.18227987
162	0x3f350638	0.70712614
163	0x3f0320f0	0.51222134
164	0x3ec43932	0.38324887
165	0x3e7dce1c	0.24785656
166	0xbeb145b9	-0.34623507
167	0x3f4e2d1c	0.8053758
168	0x3e79c497	0.243914
169	0xbf074911	-0.52845865
170	0xbe49bc4d	-0.19700737
171	0xbf0748a9	-0.52845246
172	0xbf03c1d0	-0.5146761
173	0xbea18819	-0.31549147
174	0xbaf62a0d	-0.0018780843
175	0xbe73d4d5	-0.23811658
176	0x3edcb61b	0.43107685
177	0xbe80175b	-0.2501782
178	0x3ec6a875	0.38800398
179	0xbe06fc55	-0.13182195
180	0xbec8ecad	-0.3924307
181	0x3ec8f461	0.39248946
182	0x3f1cef7d	0.6130293
183	0x3dc1c2b2	0.09460963
184	0x3e1122b1	0.1417339
185	0xbe378184	-0.179205
186	0x3e24f2fd	0.16108318
187	0x3f06c6e6	0.52647245
188	0x3eedf73a	0.4647768
189	0x3e611852	0.21981934
190	0xbdbbd46c	-0.09171376
191	0x3f16cc50	0.58905506
192	0xbf198800	-0.59973145
193	0xbe40664b	-0.18789022
194	0x3ee81136	0.4532563
195	0x3f34c2f5	0.7060998
196	0x3f19f59d	0.601404
197	0xbd815ff2	-0.06317128
198	0x3eaad2b7	0.33363888
199	0x3e654ee2	0.22393373
200	0xbe9b29fc	-0.3030547
201	0x3f4af6c2	0.7928277
202	0xbeb5980e	-0.3546757
203	0x3d9e590a	0.077318266
204	0x3f8345e8	1.0255709
205	0xbe95556f	-0.29166743
206	0xbe912007	-0.28344747
207	0xbeb420e5	-0.35181347
208	0xbf04b195	-0.5183347
209	0x3dd27188	0.102755606
210	0xbe93faeb	-0.28902373
211	0x3eb1ef22	0.34752756
212	0x3dbcf00f	0.09225475
213	0x3e419e66	0.1890808
214	0x3d4d247b	0.05008362
215	0x3f454f14	0.7707379
216	0x3ef5c6e9	0.4800332
217	0x3f804a8c	1.002275
218	0xbedee65c	-0.43535125
219	0x3f06800a	0.5253912
220	0xbe3fad98	-0.18718565
221	0x3f2daaea	0.6783892
222	0x3f05ac42	0.5221597
223	0x3e15fa7a	0.1464633
224	0xbe66c9b2	-0.22537878
225	0xbead5443	-0.3385335
226	0x3f441e0b	0.7660834
227	0x3f459f93	0.77196616
228	0x3effa341	0.4992924
229	0xbe31d530	-0.17366481
230	0xbeff372e	-0.49846786
231	0x3f48b34c	0.78398585
232	0x3ec10dd3	0.3770586
233	0xbea3cb8f	-0.3199124
234	0xbe9eb444	-0.30996907
235	0xbe416a7d	-0.18888278
236	0xbe9b3db6	-0.3032052
237	0x3ef675b4	0.48136675
238	0x3e8655f5	0.26237455
239	0x3f1cb81a	0.61218417
240	0xbe90014c	-0.2812599
241	0x3f1d4889	0.61438805
242	0xbe7d99b8	-0.2476567
243	0xbe07123c	-0.1319055
244	0x3f3ca1a9	0.73684174
245	0xbd6ee217	-0.058321085
246	0x3d8e52e1	0.06949402
247	0x3d5d852c	0.05408208
248	0x3dfc978f	0.12333595
249	0x3f4ebc71	0.8075629
250	0x3f323dbb	0.69625443
251	0x3e35f0e7	0.17767678
252	0xbe08901c	-0.13336223
253	0x3dd6dc5f	0.10491251
254	0x3f50df01	0.81590277
255	0xbddb2645	-0.10700659

l1.bias f4 [8]
0	0x3f115153	0.56764716
1	0x3efdc924	0.4956752
2	0x3f21c973	0.6319801
3	0x3f07358f	0.528161
4	0x3f2de3d5	0.6792577
5	0x3f38484f	0.71985334
6	0x3f3a983b	0.72888535
7	0x3eb538f0	0.35395002

l2.weight f4 [8, 8]
0	0xbdf202c1	-0.118169315
1	0xbd423f3e	-0.047423594
2	0xbdacf028	-0.08444244
3	0xbe0a0cd2	-0.13481453
4	0xbd965a95	-0.07341496
5	0x3e9afb61	0.30269912
6	0x3c423cc1	0.011855305
7	0xbeaf5a8f	-0.34248778
8	0x3f2f94da	0.68586504
9	0xbf8d0f05	-1.1020209
10	0x3f7c5d9c	0.98580337
11	0xbf11af40	-0.56908035
12	0xbc6ebbb5	-0.01457112
13	0x3f63d9b4	0.89004064
14	0xbf5dcc32	-0.866397
15	0x3f985df5	1.1903673
16	0x3f4b8a96	0.7950834
17	0xbf4d8ce3	-0.802931
18	0x3de891bf	0.11355924
19	0x3fc41cdc	1.5321307
20	0x3f9db640	1.2321243
21	0xbeda24d3	-0.4260622
22	0xbe9869d4	-0.2976824
23	0xbf01267b	-0.5044934
24	0xbfadf4d3	-1.359034
25	0x3f0edf7c	0.5580976
26	0x3fa6b16d	1.3022896
27	0xbf753647	-0.95785946
28	0x3f8680ec	1.0508094
29	0x3e3274fa	0.17427436
30	0x3de83c64	0.113396436
31	0xbf41c4b2	-0.7569076
32	0xbe1624e0	-0.14662504
33	0x3fa1b8e5	1.263455
34	0xbe5a90ab	-0.21344249
35	0x3dc1098a	0.094256476
36	0x3d073cbd	0.03301691
37	0x3fb9f0f7	1.4526662
38	0x3ee44c74	0.4458958
39	0xbedac32a	-0.42727023
40	0x3f8e201f	1.1103553
41	0xbf2a9f15	-0.6664899
42	0xbe81decf	-0.25365302
43	0x3f52307c	0.8210523
44	0xbeeb939e	-0.4601106
45	0xbef312b6	-0.47475213
46	0x3f857993	1.0427727
47	0x3f353356	0.7078146
48	0x3f230c18	0.6369033
49	0xbe8cd30b	-0.27504763
50	0x3f718b4b	0.9435317
51	0xbe971d85	-0.2951471
52	0x3f373a91	0.7157374
53	0x3f0ab9d5	0.5418981
54	0x3e16f80f	0.14743064
55	0xbf875035	-1.0571352
56	0xbec8a8d6	-0.39191312
57	0x3f271bf0	0.65277004
58	0xbfabae2e	-1.341253
59	0x3e40220c	0.18762988
60	0xbefa941f	-0.48941132
61	0x3f8a274c	1.0793242
62	0x3f33a05d	0.7016657
63	0x3f19d3b9	0.6008869

l2.bias f4 [8]
0	0xbe99fe70	-0.30076933
1	0x3e68f120	0.22748232
2	0x3f1020c9	0.56300026
3	0x3eb07b6f	0.34469172
4	0x3e57ad89	0.21062292
5	0x3f0a80c9	0.5410276
6	0x3ed4cbd8	0.4156177
7	0xbcc3ca6a	-0.02390023

l3.weight f4 [7, 8]
0	0xbc82ac71	-0.015951367
1	0x3e2f2815	0.17105134
2	0x3f4c3d83	0.7978136
3	0x3ece7757	0.40325424
4	0xbfb04930	-1.3772335
5	0xbfa41db9	-1.2821571
6	0x3e8c6d8c	0.27427328
7	0xbff01282	-1.8755648
8	0x3cad6355	0.02116553
9	0xbfc27511	-1.5191976
10	0x3f1f9733	0.62340087
11	0xbf9390c6	-1.1528556
12	0x3ea15e1d	0.31517115
13	0xbf03b70f	-0.514512
14	0x3f2d26c8	0.676373
15	0xbf2412fc	-0.6409147
16	0xbe83a0ab	-0.25708517
17	0xbf5106e1	-0.8165112
18	0xbf505092	-0.8137294
19	0x3f8c78f1	1.0974408
20	0x3ea1393c	0.3148898
21	0xbf8c5f2b	-1.0966543
22	0x3ecc261f	0.39872834
23	0xbf72674f	-0.94688886
24	0x3eadb6e8	0.3392861
25	0xbf09edef	-0.5387868
26	0xbf8d327b	-1.103103
27	0xbf1391f6	-0.57644594
28	0xbebcbccd	-0.36862794
29	0x3f386b1c	0.72038436
30	0xbf63b71b	-0.8895127
31	0x3eceeb66	0.4041397
32	0x3e1fcf43	0.15606408
33	0xbf91fed6	-1.1405895
34	0xbf43f771	-0.7654944
35	0xbf36c1aa	-0.7138926
36	0x3f598230	0.84964275
37	0xbf187a9b	-0.5956208
38	0xbfc27268	-1.5191164
39	0x3eb14326	0.34621543
40	0xbe65e79d	-0.22451635
41	0xbeddb9e3	-0.43305883
42	0x3f45bf37	0.77244896
43	0xbf48656b	-0.7827975
44	0xbfb6a14f	-1.4267977
45	0x3f18e1b7	0.59719414
46	0xbede213e	-0.43384737
47	0xbfb3c54b	-1.4044584
48	0xbe70972a	-0.23495165
49	0x3f78f6ae	0.97251403
50	0xbd503a81	-0.050837044
51	0xbea5ded6	-0.32396573
52	0xbeb80086	-0.359379
53	0xbf18c776	-0.59679353
54	0x3ede9141	0.43470195
55	0xbfd8f214	-1.6948876

l3.bias f4 [7]
0	0xbed6c488	-0.41946816
1	0xbf04138b	-0.5159232
2	0x3dc41982	0.09575178
3	0x3e06504a	0.13116565
4	0x3eb6d9b6	0.35712975
5	0x3e5712e9	0.21003307
6	0xbed0f38b	-0.4081081
